reinforcement-learning/dqn/models/dqn-dar.pt (torch, 169039 bytes, 8 tensors)

fc.0.weight f4 [128, 128]
-2.512032 0.02561847 0.06321734 -0.09561977 0.04040353 -0.055551704 0.071429245 -0.0036378969
0.02017407 0.035445955 -0.011215627 -0.010914915 0.0038105003 -0.014408064 0.063130334 0.056484398
0.0019389839 0.010466811 -0.014734306 0.019515213 -0.0077444394 0.14589445 -0.047185376 0.021777231
0.030959716 -0.17790994 0.046835925 0.308028 0.034485962 -0.020096319 0.027450824 0.12809874
-0.021892024 0.032801136 0.017077137 -0.05964415 0.016769268 0.116527535 0.11952723 0.060276337
0.09663469 0.05531485 0.02078932 0.057678968 0.06123374 0.0014636914 0.004989329 0.045971606
-0.12258894 9.5075455e-05 -0.0024895386 0.030986378 0.11830861 0.06252932 0.036160827 0.008097004
-0.094744734 -1.5450654 0.06579873 -0.0034940809 -0.32554856 -0.07737652 -2.426419 0.03233257
-0.2193583 0.03572062 -0.004842733 0.009098898 -0.038912896 0.030642394 -0.018903237 0.055294726
-0.06386667 -0.021740938 -0.033971872 -0.04624599 0.047090363 -0.045093473 -0.021839503 0.05958046
-0.07417598 -0.029110158 -0.0032772063 0.03623466 -0.040950645 0.008774392 0.03361132 0.060553774
0.006192909 0.0064277295 0.16881618 -0.018889908 0.025329936 0.04971179 0.0137868 0.057564653
0.022125883 -0.0055573406 0.0011158779 -0.007105628 0.016006872 0.06219277 0.038441747 0.025793865
-0.058845505 -0.033853844 -0.049297687 0.024952557 0.082902834 0.008071129 -0.041878115 0.046188112
-2.4693596 0.11641854 1.0404522 0.04849329 -0.020901112 -0.054394197 0.015616933 -0.02483803
0.038241766 -0.03470104 -0.08956844 0.007047452 -0.03487613 -0.008378118 -0.020214612 -0.017342703
-0.1887478 -0.2470716 -0.03870956 -0.03877522 -0.05851243 0.0022228474 0.06265549 0.022342753
0.023753045 0.015684731 0.016993124 -0.007740618 -0.03973256 0.028504973 0.008755049 -0.025105666
0.02405134 0.025884146 0.023144817 0.02670799 -0.027154254 -0.07215655 0.0013479798 0.032447398
0.02490281 0.5244158 0.68950176 0.14735514 0.12513085 -0.042083062 -0.119761534 0.19310856
0.0034039512 -0.11513973 -0.119374014 0.1886556 -0.034665674 0.16636214 0.22893803 0.42609504
-0.21593013 -0.114740916 -0.07186535 0.3372828 0.19807339 0.33903676 0.17074625 0.06299287
0.03771102 0.0029556083 -0.0032230127 -0.01503326 0.23422977 -0.11788551 0.0405246 -0.013053213
-0.08122029 -0.7592143 0.019902088 0.012979301 0.7821653 -0.107890725 -0.124207065 -0.16679294
0.31938437 -0.010476 0.12323142 0.041218095 -0.065156646 0.011006678 0.06923865 -0.0039212047
0.022515418 0.009076788 -0.033313036 0.01834657 -0.038553417 0.013921115 0.041543573 0.078620814
0.15774532 0.041588627 0.118462324 0.02442863 0.022528911 0.007901683 -0.049518123 -0.028204354
-0.06563658 0.028064895 -0.0021591908 -0.005227125 0.11647906 0.049755484 -0.034116674 -0.031898823
0.03396726 0.002520687 -0.029828118 -0.082069926 -0.008060537 0.094484136 0.03000619 -0.16345292
-0.06859485 0.018971924 -0.003913591 0.0606111 0.050484713 -0.049385365 -0.030067762 0.013548896
-0.24392149 0.015258763 0.6932841 -0.006604055 0.4852259 0.060554307 0.05391955 -0.0010192709
0.046270017 -0.02801862 0.022953685 0.026139943 0.011986148 0.007513661 -0.04396245 0.14146508
00000000: 22c5 20c0 d3dd d13c 1878 813d 4cd4 c3bd
00000010: 2c7e 253d 2f8a 63bd 7f49 923d c869 6ebb
00000020: 1744 a53c c72f 113d c0c1 37bc 79d4 32bc
00000030: 96b9 793b cd0f 6cbc 7a4a 813d 2f5c 673d
00000040: 8125 fe3a fd7c 2b3c 2968 71bc 5ede 9f3c
00000050: 11c5 fdbb 5b65 153e 7445 41bd 2a66 b23c
00000060: 3b9f fd3c 062e 36be 07d7 3f3d d9b5 9d3e
00000070: 2741 0d3d 09a1 a4bc 8de0 e03c 512c 033e
00000080: e756 b3bc 7c5a 063d 5ae5 8b3c 6d4d 74bd
00000090: b45f 893c fda5 ee3d b1ca f43d 52e4 763d
000000a0: 69e8 c53d d391 623d 5d4e aa3c c840 6c3d
000000b0: 3bd0 7a3d 55d9 bf3a 867d a33b b94c 3c3d
000000c0: e90f fbbd 3f63 c738 8727 23bb 25d7 fd3c
000000d0: c94b f23d 5f0f 803d 601d 143d 4ca9 043c
000000e0: 8709 c2bd b4c4 c5bf 7cc1 863d f3fc 64bb
000000f0: 4dae a6be 9577 9ebd 734a 1bc0 286f 043d
00000100: 769f 60be c94f 123d caaf 9ebb 8b13 153c
00000110: 2163 1fbd c205 fb3c f6da 9abc b97c 623d
00000120: 87cc 82bd 0d1a b2bc 1726 0bbd 6f6c 3dbd
00000130: d3e1 403d efb3 38bd c2e8 b2bc a40a 743d
00000140: 94e9 97bd 6d78 eebc 66c6 56bb cb6a 143d
00000150: ddbb 27bd 78c2 0f3c 06ac 093d 3c07 783d
00000160: e3ed ca3b b49f d23b 26de 2c3e 02bf 9abc
00000170: ba80 cf3c 979e 4b3d 08e2 613c eac8 6b3d
00000180: 5741 b53c 5a1a b6bb a642 923a 54d6 e8bb
00000190: d820 833c d9bd 7e3d 1875 1d3d a84d d33c
000001a0: fc07 71bd 54aa 0abd 5fec 49bd 4e69 cc3c
000001b0: f6c8 a93d c53c 043c 6388 2bbd bf2f 3d3d
000001c0: fd09 1ec0 d86c ee3d 8a2d 853f e6a0 463d
000001d0: cf38 abbc 73cc 5ebd 2ade 7f3c 2079 cbbc
000001e0: 66a3 1c3d ad22 0ebd a96f b7bd 50ee e63b
000001f0: 46da 0ebd 6044 09bc 1d99 a5bc 4912 8ebc
00000200: 1a47 41be 5600 7dbe ea8d 1ebd c4d2 1ebd
00000210: bbaa 6fbd 31ad 113b 8651 803d 2608 b73c
00000220: bf95 c23c 447d 803c 2a35 8b3c 03a5 fdbb
00000230: 9cbe 22bd 4383 e93c 5671 0f3c 66aa cdbc
00000240: 5107 c53c fd0a d43c 339a bd3c b7ca da3c
00000250: 9972 debc d0c6 93bd b2ae b03a 90e7 043d
00000260: fa00 cc3c 1d40 063f 3083 303f 44e4 163e
00000270: 4d22 003e 4a5f 2cbd 8945 f5bd 40be 453e
00000280: d314 5f3b 61ce ebbd 5d7a f4bd ef2e 413e
00000290: 98fd 0dbd d65a 2a3e bb6e 6a3e 2129 da3e
000002a0: ca1c 5dbe 49fd eabd 242e 93bd 55b0 ac3e
000002b0: c0d3 4a3e 3a96 ad3e 1bd8 2e3e 6802 813d
000002c0: df76 1a3d e1b2 413b 2e39 53bb 104e 76bc
000002d0: eed9 6f3e f56d f1bd 1ffd 253d 25dd 55bc
000002e0: d356 a6bd de5b 42bf b409 a33c 22a7 543c
000002f0: fc3b 483f d0f5 dcbd 4660 febd c5cb 2abe
00000300: 5986 a33e 87a3 2bbc c160 fc3d 4ed4 283d
00000310: d970 85bd 5b55 343c fecc 8d3d 737d 80bb
00000320: 4172 b83c cfb6 143c 4073 08bd 8c4b 963c
00000330: 30ea 1dbd 6315 643c 9829 2a3d f303 a13d
00000340: fd87 213e d658 2a3d 609c f23d 8d1e c83c
00000350: 8d8e b83c 1076 013c 84d3 4abd d10c e7bc
00000360: 796c 86bd 5ae8 e53c 3681 0dbb 4d48 abbb
00000370: 938c ee3d 68cc 4b3d edbd 0bbd 57a8 02bd
00000380: 4121 0b3d 1c32 253b 195a f4bc 4714 a8bd
00000390: 5810 04bc e680 c13d 8bcf f53c 3460 27be
000003a0: 757b 8cbd 026b 9b3c 953d 80bb 5843 783d
000003b0: 0fc9 4e3d 4f48 4abd ab50 f6bc 30fc 5d3c
000003c0: 8ec6 79be e4ff 793c 117b 313f d466 d8bb
000003d0: 876f f83e cb07 783d bfda 5c3d 0e99 85ba
000003e0: a185 3d3d 4e87 e5bc 5e09 bc3c 6f23 d63c
000003f0: 8c61 443c 2835 f63b f811 34bd 39dc 103e

fc.0.bias f4 [128]
-0.008203442 -0.21276785 0.17002855 0.025940027 0.08586497 0.122202344 -0.020394856 0.03503667
0.07238889 -0.0508069 -0.012055012 0.22347791 0.12535714 0.14578891 0.11638478 0.14612739
-0.119047865 -0.13349381 0.19609937 0.1359427 -0.14113699 -0.15024896 -0.0016083346 0.0900718
0.104423426 0.037660785 0.053531818 -0.06679502 0.09483032 0.068902366 0.22462301 -0.004704015
-0.17173782 0.16411011 -0.06167207 -0.060649056 -0.06604246 -0.0644596 0.17853862 0.063041456
-0.16501974 -0.07155899 0.07143783 -0.009484889 0.051661283 -0.029537175 0.058946732 0.07413779
0.14594057 -0.028311376 -0.027857358 0.0319845 0.10466887 -0.0016606214 -0.024286026 0.079817556
-0.28680047 -0.1002091 0.0730588 -0.012681467 0.059060838 0.043343794 0.09353745 -0.006076034
-0.085063584 0.16056485 0.0037358853 0.13367246 -0.1400089 0.23117197 0.06637022 -0.077948384
0.20151167 0.053512827 0.009077849 0.11012286 0.0045729717 -0.06518981 0.124495186 0.2714977
0.0037489336 -0.08514402 -0.24563985 0.0052847173 0.038492296 0.09383458 0.06164438 -0.0026950676
-0.045852847 -0.053064883 -0.16676182 0.068365745 -0.0058563612 -0.002601802 -0.012512865 0.10441148
0.17705616 -0.06670187 0.07115415 -0.12993929 0.14612113 0.10826308 -0.030958196 -0.08353578
0.07830882 0.032886095 -0.12456977 -0.025220377 0.18808146 0.0025395872 0.03488505 0.11038014
0.06825291 0.1581211 -0.08875855 0.12542468 0.004765888 0.028850576 0.097986594 0.06227765
0.022544442 0.08150836 0.068125494 0.24513686 -0.0137226945 0.16248232 0.09965217 -0.08120581
00000000: bb67 06bc d1df 59be f71b 2e3e 2e80 d43c
00000010: f9d9 af3d 3945 fa3d 1d13 a7bc 9c82 0f3d
00000020: a040 943d e51a 50bd 6382 45bc 65d7 643e
00000030: 9f5d 003e b049 153e 255b ee3d 6ba2 153e
00000040: 5ecf f3bd 9ab2 08be 46ce 483e 9034 0b3e
00000050: 3786 10be ddda 19be c1ce d2ba 9077 b83d
00000060: f3db d53d 3242 1a3d 2e44 5b3d d4cb 88bd
00000070: 6636 c23d af1c 8d3d 9303 663e 2324 9abb
00000080: 0adc 2fbe 7b0c 283e da9b 7cbd 256b 78bd
00000090: 4541 87bd 6503 84bd d4d2 363e e11b 813d
000000a0: effa 28be 858d 92bd ff4d 923d 8266 1bbc
000000b0: c89a 533d f2f7 f1bc 2172 713d 8ed5 973d
000000c0: 7271 153e 42ed e7bc 1d35 e4bc 2e02 033d
000000d0: a25c d63d 35a9 d9ba 7df3 c6bc 6377 a33d
000000e0: 83d7 92be 6e3a cdbd da9f 953d eec5 4fbc
000000f0: c7e9 713d 4389 313d 9090 bf3d 7819 c7bb
00000100: d135 aebd 1d6b 243e c1d5 743b 6fe1 083e
00000110: 7e5e 0fbe 58b8 6c3e 1ced 873d 67a3 9fbd
00000120: 1359 4e3e 4430 5b3d 42bb 143c 1888 e13d
00000130: ded8 953b 3c82 85bd 55f7 fe3d bf01 8b3e
00000140: abb0 753b fd5f aebd 0389 7bbe 6c2b ad3b
00000150: 19aa 1d3d 582c c03d d17e 7c3d bb9f 30bb
00000160: 32d0 3bbd 905a 59bd 9cc3 2abe 5703 8c3d
00000170: b8e6 bfbb ff82 2abb c202 4dbc b0d5 d53d
00000180: 364e 353e fd9a 88bd 44b9 913d ce0e 05be
00000190: c7a0 153e 09b9 dd3d 0b9c fdbc cf14 abbd
000001a0: 6060 a03d 92b3 063d 701e ffbd f79a cebc
000001b0: 6d98 403e 346f 263b a0e3 0e3d fc0e e23d
000001c0: 2fc8 8b3d 7fea 213e 0bc7 b5bd 546f 003e
000001d0: 2b2b 9c3b 0b58 ec3c 32ad c83d d916 7f3d
000001e0: 1faf b83c dbed a63d 6185 8b3d 2805 7b3e
000001f0: 27d5 60bc c461 263e 7016 cc3d 3b4f a6bd

fc.2.weight f4 [128, 128]
0.012257183 0.19154717 0.076353915 0.034253255 0.014512005 0.026828105 -0.003873214 0.069474585
0.11114504 -0.07609113 -0.0038985077 0.0010380397 0.014006563 0.03990827 0.032409996 -0.092598274
0.18541476 -0.064997986 -0.117737174 -0.045909185 -0.0033062934 0.09793768 0.051666547 0.14368723
-0.020321371 -0.19403794 0.019318534 0.013984058 0.122305065 -0.00044173148 -0.004048199 -0.112916425
-0.11093928 -0.07356324 0.09856815 -0.019923775 -0.020069685 0.00251035 -0.026887722 -0.13309355
0.18003497 0.114892945 -0.040299036 0.06998645 0.1259141 -0.017272355 0.12714718 -0.018672721
0.046347734 -0.08431827 0.02575899 -0.014889048 -0.20744157 -0.046086 0.05159462 0.04611818
-0.10783634 -0.00043204657 -0.0025045644 -0.019528992 -0.123155 0.16335966 0.040482093 0.08467425
-0.33185422 -0.039879806 0.033767413 -0.017200949 0.077078514 0.07171779 -0.06920523 -0.25042146
0.12389564 0.06480885 0.041247237 0.05045226 0.04624718 0.05322745 -2.0488458e-05 -0.030447247
0.08413786 0.028566036 -0.026335897 -0.054713972 0.018753244 0.006982963 0.054412108 0.054875072
-0.13097684 0.008846191 -0.036970757 0.056766976 -0.103606164 -0.13635795 -0.018009055 0.08043584
-0.025634427 0.0101497555 0.09158303 -0.0092892535 -0.055729438 0.13379572 0.0944823 0.07576287
0.13415775 -0.05417315 -0.060251374 0.029402647 0.051590215 -0.018423434 0.11210602 -0.018196385
0.055101544 -0.078793906 0.014277763 -0.09863078 0.114171654 -0.12332063 0.07841845 -0.09858163
-0.67481214 -0.04576444 0.10840301 -0.08953713 -0.01160602 0.023778487 0.05128614 -0.015299102
0.054058783 0.26023635 0.031320523 0.026461061 -0.07553633 0.052952096 -0.04127919 -0.014659174
0.09046566 -0.056095645 -0.039961554 -0.11262898 0.077613086 -0.08638632 0.00856842 -0.13497072
0.13474786 -0.060131777 -0.040712018 -0.047172144 -0.051905606 -0.062069423 -0.11265069 0.15855174
0.033311892 0.07452668 -0.08664169 0.07457173 -0.19018763 -0.09306446 0.027089423 -0.2784483
-0.069940574 -0.01778515 -0.14793506 0.010803028 0.06109116 0.13632974 -0.026841518 0.0007566835
-0.021255452 0.027422307 0.14538668 -0.021636652 0.046001248 0.072834246 0.027219065 -0.016778082
-0.049984433 -0.08429563 0.016611703 -0.033584796 -0.28701216 0.0072048707 -0.031120265 -0.017402064
-0.22828381 0.1367788 -0.040417496 0.058842905 -0.03836993 -0.15027648 -0.14257199 0.13117382
-0.2683222 -0.09027467 -0.08458622 -0.05071443 0.12978822 -0.022257984 -0.21762106 -0.27747497
0.047596566 0.0021076626 -0.06813097 0.0004475316 0.07802757 0.08388538 -0.056462545 0.07223811
0.11677826 0.18620008 0.026314111 -0.019798893 0.09429649 0.19850072 0.12321396 -0.011779396
-0.08805651 0.11575966 -0.086172864 0.07507576 0.03920617 0.03877436 0.08853048 -0.03919136
-0.017022066 0.043177187 0.10813895 -0.03673874 -0.0669877 -0.07815186 0.0395686 0.024034722
0.28449476 -0.035422746 0.032662783 -0.11145124 -0.08724079 -0.036360823 0.011802073 -0.0517519
-0.009678286 0.09397148 0.065196015 -0.0026344887 0.023172863 -0.029347656 -0.026086291 -0.004529904
0.24384768 0.09823691 -0.09025337 0.037741527 -0.10619792 -0.08858329 0.09770645 0.047015324
00000000: 5ad2 483c f124 443e 715f 9c3d 244d 0c3d
00000010: c3c3 6d3c 9dc6 db3c bfd5 7dbb b148 8e3d
00000020: 03a0 e33d abd5 9bbd 1b7e 7fbb d50e 883a
00000030: c97b 653c db76 233d 58c0 043d 2aa4 bdbd
00000040: 5edd 3d3e aa1d 85bd 3020 f1bd 450b 3cbd
00000050: 66ae 58bb 8d93 c83d 4da0 533d bf22 133e
00000060: 0179 a6bc e2b1 46be e741 9e3c 641d 653c
00000070: 147b fa3d 3298 e7b9 c1a6 84bb ba40 e7bd
00000080: 2234 e3bd 53a8 96bd 19de c93d 2f37 a3bc
00000090: 2e69 a4bc af84 243b a443 dcbc ad49 08be
000000a0: 165b 383e fe4c eb3d 9a10 25bd 0e55 8f3d
000000b0: a0ef 003e c17e 8dbc df32 023e 89f7 98bc
000000c0: 1fd7 3d3d 0faf acbd 8404 d33c 32f1 73bc
000000d0: 906b 54be acc4 3cbd e154 533d 6be6 3c3d
000000e0: 4dd9 dcbd 4f84 e2b9 9e23 24bb 44fb 9fbc
000000f0: b038 fcbd c147 273e 8dd0 253d b169 ad3d
00000100: cce8 a9be 0259 23bd b34f 0a3d 01e9 8cbc
00000110: 57db 9d3d c7e0 923d 79bb 8dbd 3e37 80be
00000120: ffbc fd3d 81ba 843d ddf2 283d 07a7 4e3d
00000130: af6d 3d3d 0705 5a3d a1de abb7 816c f9bc
00000140: 7850 ac3d 5203 ea3c 61be d7bc c21b 60bd
00000150: 67a0 993c 57d1 e43b 3bdf 5e3d afc4 603d
00000160: cb1e 06be 9def 103c a66e 17bd 7d84 683d
00000170: 782f d4bd 6ba1 0bbe ba87 93bc 8cbb a43d
00000180: 4aff d1bc 294b 263c e28f bb3d f431 18bc
00000190: 8d44 64bd bf01 093e f07f c13d 9029 9b3d
000001a0: a660 093e aae4 5dbd 25ca 76bd d2dd f03c
000001b0: 4350 533d beec 96bc d797 e53d 9610 95bc
000001c0: 28b2 613d b35e a1bd 47ed 693c effe c9bd
000001d0: d4d2 e93d 878f fcbd da99 a03d 2ae5 c9bd
000001e0: 7dc0 2cbf 7e73 3bbd 6602 de3d 3e5f b7bd
000001f0: 2d27 3ebc 1acb c23c 6a11 523d 16a9 7abc
00000200: be6c 5d3d b33d 853e f349 003d dec4 d83c
00000210: cbb2 9abd 4ce4 583d 5e14 29bd 082d 70bc
00000220: 0f46 b93d 8cc4 65bd baae 23bd 06aa e6bd
00000230: 9cf3 9e3d 50eb b0bd 8f62 0c3c c435 0abe
00000240: 58fb 093e bd4c 76bd a5c1 26bd 9437 41bd
00000250: f99a 54bd 823c 7ebd 68b5 e6bd 635b 223e
00000260: 0d72 083d 72a1 983d 3371 b1bd 10b9 983d
00000270: 8cc0 42be 9498 bebd a3ea dd3c c790 8ebe
00000280: 013d 8fbd 2ab2 91bc 4a7c 17be 2fff 303c
00000290: b93a 7a3d 069a 0b3e bee2 dbbc 2c5c 463a
000002a0: ea1f aebc bfa4 e03c 3fe0 143e 593f b1bc
000002b0: ce6b 3c3d 1f2a 953d 84fa de3c 3072 89bc
000002c0: 7abc 4cbd 30a3 acbd 4415 883c 3690 09bd
000002d0: 42f3 92be d616 ec3b edef febc c68e 8ebc
000002e0: 3bc3 69be be0f 0c3e d18c 25bd 4205 713d
000002f0: ca29 1dbd 14e2 19be 64fe 11be 6e52 063e
00000300: 8761 89be ede1 b8bd 8a3b adbd efb9 4fbd
00000310: 34e7 043e 6056 b6bc 0ed8 5ebe 3311 8ebe
00000320: 9ef4 423d b620 0a3b 4088 8bbd ada2 ea39
00000330: ebcc 9f3d 19cc ab3d 4545 67bd 93f1 933d
00000340: 7129 ef3d 3cab 3e3e b190 d73c 4a31 a2bc
00000350: 851e c13d c643 4b3e 9a57 fc3d 5efe 40bc
00000360: f956 b4bd 6713 ed3d 667b b0bd 52c1 993d
00000370: a696 203d ddd1 1e3d 784f b53d 1f87 20bd
00000380: dc71 8bbc 90da 303d f477 dd3d 5c7b 16bd
00000390: d930 89bd 150e a0bd af12 223d 77e4 c43c
000003a0: 4ca9 913e 7117 11bd 69c9 053d 8c40 e4bd
000003b0: 4dab b2bd 16ef 14bd 7b5d 413c cdf9 53bd
000003c0: ac91 1ebc 1f74 c03d 7d85 853d 63a7 2cbb
000003d0: 04d5 bd3c 7f6a f0bc ebb2 d5bc 976f 94bb
000003e0: 35b3 793e 6f30 c93d c2d6 b8bd dc96 1a3d
000003f0: 4c7e d9bd 286b b5bd 521a c83d 2493 403d

fc.2.bias f4 [128]
0.044237163 0.07181516 -0.11604121 0.11734795 -0.071161814 0.031089941 -0.034141067 0.3762705
0.078412265 0.09447999 -0.08459093 0.18147756 0.103160866 -0.030723173 -0.07351059 -0.044297524
0.093483075 0.047582705 0.10744353 -0.19879179 0.027343756 0.21271837 0.07435096 0.06617136
0.020670215 0.019281492 -0.053371817 -0.037718758 -0.024955556 0.074384294 0.15124063 -0.003030871
0.121707864 0.18182018 0.27136964 0.005896851 0.18050359 0.1695558 -0.19417809 0.15576445
-0.033275172 -0.0042163883 -0.08869338 0.040640723 -0.008398465 0.048803963 0.1513697 -0.09353907
-0.041901015 -0.11184266 0.12989545 0.24493223 -0.022587983 -0.20604312 0.0049045817 -0.07446228
0.18019983 0.11588638 0.14514112 -0.15785292 0.03372881 -0.024040172 0.03839812 -0.036985412
-0.0049954867 0.09695082 -0.0102 0.13865651 -0.0935623 0.028861443 0.09134026 0.082154654
0.17070323 0.031155044 0.15720667 0.032765046 0.0134328315 -0.022595149 -0.004493966 -0.057161275
0.12216415 0.11554938 -0.17993899 0.18234944 -0.0341979 -0.06345884 -0.022008013 0.05915809
-0.02282485 0.10387265 0.12976015 0.04381305 0.010874431 0.23141831 -0.15082368 0.05822107
-0.11064652 0.061515845 -0.030907217 0.004018909 -0.020102864 0.15120545 -0.03063638 0.09187117
-0.005878251 0.0069447495 -0.022856448 0.083876036 0.20955351 0.17844611 0.058833737 -0.106708325
0.093075804 0.08344934 -0.12862074 0.07789904 -0.04688334 0.09583485 0.26680365 0.055854168
0.025078895 -0.06304755 0.21127833 -0.09601337 -0.01631364 0.21212028 0.08791305 0.026233753
00000000: 0732 353d d413 933d 04a7 edbd 1f54 f03d
00000010: 49bd 91bd 55b0 fe3c 81d7 0bbd 87a6 c03e
00000020: 9c96 a03d ba7e c13d 023e adbd 41d5 393e
00000030: 0146 d33d 2aaf fbbc b88c 96bd 5271 35bd
00000040: 0e74 bf3d 15e6 423d 5a0b dc3d 1390 4bbe
00000050: 0300 e03c d8d2 593e 5145 983d da84 873d
00000060: 9554 a93c 38f4 9d3c 689c 5abd fc7e 1abd
00000070: 986f ccbc cb56 983d d3de 1a3e 94a1 46bb
00000080: f941 f93d 122f 3a3e f6f0 8a3e 5f3a c13b
00000090: efd5 383e 09a0 2d3e 9fd6 46be b780 1f3e
000000a0: 8c4b 08bd a129 8abb e0a4 b5bd e376 263d
000000b0: b799 09bc aae6 473d a900 1b3e 6991 bfbd
000000c0: 66a0 2bbd c40d e5bd 5003 053e 84cf 7a3e
000000d0: 6f0a b9bc f8fc 52be 9db6 a03b ae7f 98bd
000000e0: 4e86 383e d755 ed3d e09f 143e 32a4 21be
000000f0: 3827 0a3d e5ef c4bc 5947 1d3d 047e 17bd
00000100: 2eb1 a3bb 278e c63d e71d 27bc f9fb 0d3e
00000110: 979d bfbd d56e ec3c 9a10 bb3d b340 a83d
00000120: d4cc 2e3e dd38 ff3c c9fa 203e a434 063d
00000130: 6115 5c3c 7619 b9bc 1e42 93bb f121 6abd
00000140: 3331 fa3d 27a5 ec3d ed41 38be d0b9 3a3e
00000150: 1913 0cbd b5f6 81bd 264a b4bc c14f 723d
00000160: 2efb babc 2fbb d43d d8df 043e 5075 333d
00000170: ab2a 323c ecf8 6c3e 8671 1abe 3779 6e3d
00000180: a59a e2bd 0af8 7b3d 2231 fdbc 0db1 833b
00000190: c3ae a4bc 9ad5 1a3e 25f9 fabc f426 bc3d
000001a0: 589e c0bb c890 e33b 723d bbbc 33c7 ab3d
000001b0: 3295 563e 94ba 363e a5fb 703d e589 dabd
000001c0: 879e be3d 7de7 aa3d 28b5 03be 8889 9f3d
000001d0: bf08 40bd 1045 c43d 7d9a 883e 57c7 643d
000001e0: 4172 cd3c 131f 81bd 5959 583e a8a2 c4bd
000001f0: 2fa4 85bc 0f36 593e c20b b43d 2be8 d63c

fc.4.weight f4 [64, 128]
0.075903 -0.035564452 -0.07875429 -0.026273346 -0.035330903 -0.022689003 -0.0010399063 0.09729575
-0.007830864 -0.0040671756 0.0034875628 -0.030560244 -0.050404184 0.09168301 -0.044735543 -0.019927414
0.024576973 -0.07208587 -0.07053821 -0.032272976 -0.09278494 0.013877105 0.005878231 0.020315379
0.0025151144 -0.11335138 -0.017384965 0.027559604 0.062379748 0.018479576 -0.057934266 -0.030751357
0.04861004 0.0024710805 -0.011617767 0.009164359 -0.09073775 0.056541562 0.033526693 0.005919074
-0.053003974 0.0045339717 -0.009018014 0.024763884 -0.0355803 -0.02955074 -0.0017493151 -0.025957987
0.013065192 -0.00402314 -0.08317744 0.03720808 -0.02807606 -0.03317507 0.04468313 0.049860846
-0.13116005 0.008894519 0.023613986 0.010765308 -0.07067369 0.042271554 0.072635256 0.17668205
-0.002615149 0.017954653 0.017896978 -0.04770229 -0.0631652 0.018075515 -0.008291428 0.055570558
0.0011316028 -0.049417287 -0.13885933 -0.052962564 -0.015573796 -0.043399505 0.0786055 0.046437226
-0.0067070797 -0.06231098 -0.0655615 -0.03458652 -0.03907652 0.052096095 -0.048824996 0.0016578769
0.07539599 -0.0020601617 -0.005338498 -0.004938477 -0.0155149605 -0.032381378 -0.015395161 0.06664258
0.07219105 -0.0054663126 0.048019595 0.059963875 -0.005799231 0.097832255 0.034036867 -0.070573516
-0.008601768 -0.03371134 -0.023307595 0.027230326 -0.046980385 -0.06738768 0.08300152 -0.004308424
0.049667392 0.01486423 -0.02073269 -0.07190979 0.0025528837 0.0057235663 0.008241307 0.09452997
-0.08467302 0.0032312812 -0.0023632406 0.09000034 -0.07102523 0.037217066 -0.03965284 -0.03198735
0.061743025 0.05354895 0.004531374 0.1718398 0.03564333 0.04259559 0.26050845 0.08826893
0.085665464 -0.10477375 -0.56619513 0.0098618 -0.08864589 -0.26258585 0.045100506 -2.2221794
-0.03390444 -0.038465638 -0.056964472 -0.08337834 0.31243536 0.058746386 0.17338589 -0.24685213
0.07292367 0.07237934 -0.030142745 -0.04596122 0.11699351 -0.3649865 -0.12567942 -0.13473223
-0.009767082 0.048252173 -0.0031685065 -0.069963 -0.018274233 0.026252205 -0.048597075 -0.117864504
-0.052819926 0.098221295 0.0060069626 0.066053465 -1.4123881 0.0585733 -0.2541123 -0.06834395
0.084678374 0.35486066 -0.039089017 0.118515745 0.16406418 -0.020829568 -0.065397836 -0.043872654
0.2828321 -0.3117615 0.0696626 -0.036288038 0.15685537 -0.14446425 0.17528875 -0.052522317
0.03118738 0.25985646 0.19977705 -1.3274618 -0.6689707 0.007738938 0.0667423 0.1265865
-0.05631545 0.2217104 0.1444505 0.06937622 -0.12181804 0.0349671 -0.6391173 -0.029575666
-0.010172069 -0.027537918 0.12773275 -0.00918049 -1.7145842 0.0123997815 -0.0006617702 0.2365484
-0.45006222 -0.009185072 0.12253771 -0.043288212 0.19045603 0.036692776 -0.2923343 -0.014767633
-0.014648387 0.09762143 0.004125187 0.090731 -0.32620522 -0.040330157 0.08119649 -0.0018554619
-0.11999555 -0.043420557 -0.071366556 0.048446935 0.051261384 0.048803296 0.2101347 -0.48586246
0.050150085 -1.5244913 -0.014710985 -0.03863464 -0.030303428 0.025041651 -0.025275359 0.042522535
0.13777237 0.47240025 0.07572112 -0.13725442 -0.22144608 0.09000621 0.30866474 -0.05931771
00000000: 0873 9b3d 08ac 11bd ee49 a1bd 333b d7bc
00000010: 23b7 10bd 4ade b9bc 774d 88ba ff42 c73d
00000020: 064d 00bc f145 85bb 988f 643b 7a59 fabc
00000030: 9e74 4ebd 4dc4 bb3d 9e3c 37bd d13e a3bc
00000040: a655 c93c c2a1 93bd 5676 90bd ab30 04bd
00000050: 0806 bebd cc5c 633c 2d9e c03b 706c a63c
00000060: 9ed4 243b c524 e8bd ea6a 8ebc aec4 e13c
00000070: e881 7f3d 7b62 973c 7b4c 6dbd 45ea fbbc
00000080: 521b 473d daf1 213b 7258 3ebc 1c26 163c
00000090: b7d4 b9bd 2098 673d 4953 093d cbf4 c13b
000000a0: b21a 59bd b691 943b 4bc0 13bc a1dd ca3c
000000b0: a6bc 11bd 6514 f2bc 4649 e5ba d8a5 d4bc
000000c0: 630f 563c 8bd4 83bb ef58 aabd 8067 183d
000000d0: c4ff e5bc 95e2 07bd a805 373d e33a 4c3d
000000e0: d24e 06be 51ba 113c 1e72 c13c f960 303c
000000f0: 5ebd 90bd f024 2d3d cbc1 943d 24ec 343e
00000100: eb62 2bbb a315 933c af9c 923c 7a63 43bd
00000110: c25c 81bd 1a13 943c c5d8 07bc f49d 633d
00000120: 4a52 943a c869 4abd 2431 0ebe 46ef 58bd
00000130: 3c29 7fbc aec3 31bd ecfb a03d f634 3e3d
00000140: 10c7 dbbb cc39 7fbd 1c45 86bd 98aa 0dbd
00000150: b30e 20bd b762 553d b8fc 47bd 1e4d d93a
00000160: 3669 9a3d c703 07bb 91ee aebb f3d2 a1bb
00000170: 7632 7ebc 56a2 04bd fc3b 7cbc e87b 883d
00000180: e7d8 933d c11e b3bb 32b0 443d ae9c 753d
00000190: 7a07 bebb 475c c83d 3e6a 0b3d d988 90bd
000001a0: 6eee 0cbc e714 0abd 92ef bebc 2212 df3c
000001b0: 816e 40bd 8d02 8abd b3fc a93d ae2d 8dbb
000001c0: 0970 4b3d 1989 733c 9ad7 a9bc 7145 93bd
000001d0: 484e 273b c18c bb3b 8c06 073c ee98 c13d
000001e0: 0c69 adbd e7c3 533b 99e0 1abb 1952 b83d
000001f0: ad75 91bd ec70 183d 046b 22bd 2b05 03bd
00000200: 41e6 7c3d 2556 5b3d ec7b 943b c6f6 2f3e
00000210: befe 113d b778 2e3d 5d61 853e 57c6 b43d
00000220: 6071 af3d 9f93 d6bd 2af2 10bf 6393 213c
00000230: fa8b b5bd a771 86be 4fbb 383d 3038 0ec0
00000240: 62df 0abd 258e 1dbd 9453 69bd 43c2 aabd
00000250: 87f7 9f3e 0da0 703d 128c 313e cec6 7cbe
00000260: 0159 953d 9f3b 943d ebed f6bc d541 3cbd
00000270: 4b9a ef3d 83df babe 1bb2 00be 3ff7 09be
00000280: 1c06 20bc 12a4 453d b8a6 4fbb c348 8fbd
00000290: d8b3 95bc dd0e d73c ba0d 47bd f262 f1bd
000002a0: b559 58bd 3f28 c93d 0ed6 c43b 0a47 873d
000002b0: 22c9 b4bf 8eea 6f3d 021b 82be eaf7 8bbd
000002c0: db6b ad3d 4cb0 b53e ce1b 20bd 62b8 f23d
000002d0: 7100 283e c5a2 aabc 4def 85bd d0b3 33bd
000002e0: 5ecf 903e 349f 9fbe 44ab 8e3d c4a2 14bd
000002f0: b29e 203e 70ee 13be e57e 333e a421 57bd
00000300: ad7c ff3c e80b 853e 5b92 4c3e 45ea a9bf
00000310: aa41 2bbf eb96 fd3b 30b0 883d e49f 013e
00000320: 08ab 66bd 0d08 633e d5ea 133e 1f15 8e3d
00000330: bd7b f9bd a939 0f3d 319d 23bf ab48 f2bc
00000340: c0a8 26bc 3397 e1bc 60cc 023e c469 16bc
00000350: 7f77 dbbf 7428 4b3c a57a 2dba be39 723e
00000360: 8e6e e6be fc7c 16bc 0df5 fa3d fb4e 31bd
00000370: e806 433e 2a4b 163d d7ac 95be f1f3 71bc
00000380: caff 6fbc bfed c73d 942c 873b 2dd1 b93d
00000390: 5f04 a7be 3c31 25bd 584a a63d f832 f3ba
000003a0: 3ac0 f5bd c1d9 31bd a128 92bd 4b70 463d
000003b0: 75f7 513d f7e5 473d 8d2d 573e f7c2 f8be
000003c0: 2d6a 4d3d 8822 c3bf 5806 71bc 5b3f 1ebd
000003d0: e53e f8bc 2624 cd3c 450e cfbc 1c2c 2e3d
000003e0: 3314 0d3e 72de f13e ad13 9b3d 6c8c 0cbe
000003f0: c3c2 62be 2d55 b83d 4e09 9e3e 21f7 72bd

fc.4.bias f4 [64]
-0.12678058 0.09222956 0.16161127 0.08811494 -0.10944361 -0.06154497 5.7552584e-06 0.22065395
0.051887114 0.053891454 -0.12080817 0.096439295 -0.2805714 0.13984282 -0.06489874 0.052504655
0.12853043 -0.030394502 0.105794474 -0.010879265 0.037700493 0.086693846 0.0050184815 -0.12799466
0.006190498 0.016882097 0.07939879 0.11855532 -0.16297942 0.045594435 -0.0143714575 -0.09196643
-0.08740183 -0.11005343 0.08755329 -0.08876335 0.03288683 0.13190812 0.04302454 0.1261894
-0.13957721 0.039139472 -0.098991156 -0.042551797 -0.08199364 0.083545774 0.011528521 -0.025713658
0.054620348 -0.040651772 0.006084767 0.010057011 0.13393006 -0.034591477 0.073433004 0.1913401
-0.20404497 -0.036417246 0.02209923 0.25143355 -0.0032797882 0.067607634 0.08105055 0.027479194
00000000: c5d2 01be dae2 bc3d 6d7d 253e 9b75 b43d
00000010: f923 e0bd 9416 7cbd 4b1d c136 1cf3 613e
00000020: 9587 543d 49bd 5c3d 466a f7bd f781 c53d
00000030: 0ea7 8fbe f532 0f3e a1e9 84bd 1f0f 573d
00000040: 7b9d 033e e4fd f8bc c6aa d83d f23e 32bc
00000050: d56b 1a3d 8b8c b13d 1372 a43b 0811 03be
00000060: a9d9 ca3b 534c 8a3c d59b a23d 22cd f23d
00000070: 14e4 26be 3bc1 3a3d 4376 6bbc e558 bcbd
00000080: bbff b2bd b163 e1bd 244f b33d 8fc9 b5bd
00000090: 57b4 063d ec12 073e 803a 303d cb37 013e
000000a0: 54ed 0ebe b650 203d e0bb cabd cb4a 2ebd
000000b0: 48ec a7bd 0c1a ab3d 1fe2 3c3c 73a5 d2bc
000000c0: 96b9 5f3d 7982 26bd ba62 c73b 29c6 243c
000000d0: f624 093e cbaf 0dbd 0b64 963d a9ee 433e
000000e0: 2af1 50be 402a 15bd 7209 b53c e6bb 803e
000000f0: b7f1 56bb df75 8a3d d5fd a53d 0c1c e13c

fc.6.weight f4 [6, 64]
0.06694878 0.14841619 -0.20858954 -0.10704122 0.1735217 -0.15104732 -0.07141725 0.14098126
0.30232528 -0.19891448 -0.004400681 -0.14019428 -0.18022637 -0.13422282 0.27670622 0.28320718
-0.21080811 0.03707778 -0.19162071 0.21503885 0.028043397 -0.17970744 0.19577272 -0.04710471
-0.041935336 -0.12391043 0.28388777 0.42113528 -0.026023364 -0.22518547 0.08575729 0.14654294
-0.02815453 -0.0036207435 -0.16029821 0.089213416 0.22155653 -0.024010988 0.23071374 -0.41801846
0.5336111 -0.32436293 0.03497801 -0.038164504 0.28236493 -0.014701726 0.060994614 0.24825618
-0.34305903 0.2617035 0.2174381 0.7069767 0.33578825 -0.34016788 -0.277951 -0.2859987
-0.06777846 0.057407897 0.2079341 -0.18022816 0.031204833 -0.27536508 -0.056911968 -0.15331595
0.025568673 0.28091154 -0.38866383 -0.1323549 0.052697707 -0.13224834 -0.10627763 0.25946698
0.23725723 -0.13811609 0.07353542 -0.16823703 -0.10302124 -0.18737562 0.20763616 0.30115917
-0.14628668 0.082082585 -0.17483768 0.05806494 -0.004447622 -0.14515446 0.20620492 -0.036034506
0.1681524 -0.12731002 0.43848854 0.41650346 0.001055246 -0.22928421 -0.11826913 0.29571956
-0.034823943 -0.040538028 -0.1602962 -0.026219921 0.2213973 0.23505706 -0.057720073 -0.26998177
0.3602279 -0.32551315 -0.11354002 0.02129948 0.23433892 -0.026837016 0.32853323 0.19240363
-0.27267268 0.26498944 -0.014340247 0.85800207 0.25733957 -0.38176054 -0.21040662 -0.33495378
0.057864115 -0.028142069 0.362934 -0.13887909 -0.06314149 -0.21496196 -0.054829918 -0.12495236
-0.038833138 0.19982778 -0.10592985 -0.15386316 -0.20024924 -0.30843893 0.28813425 0.06487183
0.12785178 -0.2636852 0.015468291 -0.10668371 -0.13778141 -0.25218728 0.33395362 0.1756506
-0.13749614 -0.0975412 -0.14390033 0.42882925 0.09232168 0.092403285 0.004056127 -0.094215184
0.31259468 -0.3247351 -0.46159926 0.16660345 -0.027247433 -0.29932508 0.012893401 0.2142477
-0.039073147 0.026181802 -0.26080135 0.037026223 0.2267777 0.021083409 0.2521504 -0.32217386
0.7012179 -0.29095396 0.050998304 0.03005064 0.2529435 0.11345513 0.063271746 0.27857417
-0.32839084 0.19971205 0.41831315 0.59849876 0.18517385 -0.10440153 0.007304844 -0.28986284
-0.22931448 0.01958642 0.20910996 -0.12856357 -0.06966333 0.3810086 -0.17815576 -0.1699705
-0.054852393 0.24630022 -0.19773172 -0.3331587 0.010530787 -0.09054507 -0.24779896 0.2881964
0.2296882 -0.17816964 -0.020196691 -0.111742705 -0.14886169 -0.116395645 0.27126798 0.0613909
-0.17480554 -0.076751806 -0.165337 0.07686427 0.050653826 -0.035723686 0.5611206 -0.008351248
-0.0053693005 -0.15571845 0.50535184 0.02507506 -0.04427679 -0.25735435 -0.0022833096 0.19863275
-0.020951599 -0.02135433 -0.21785702 0.02990142 0.20439766 0.06071783 0.21911596 -0.3212237
0.67808867 -0.29553682 0.077616096 -0.039344266 0.2542186 -0.09098906 -0.021363862 0.22871466
-0.38256636 0.43449607 0.40838915 0.6904181 0.1371857 0.23463361 -0.17941543 -0.35906705
0.5735913 -0.02545791 0.11481843 -0.08772808 0.025955139 0.07738179 -0.2858924 -0.17511024
00000000: 711c 893d 6afa 173e 7f98 55be 6d38 dbbd
00000010: acaf 313e 26ac 1abe 3543 92bd 645d 103e
00000020: 61ca 9a3e 3db0 4bbe 9633 90bb 178f 0fbe
00000030: 438d 38be b571 09be 70ac 8d3e 8800 913e
00000040: 15de 57be dfde 173d 3838 44be 2533 5c3e
00000050: 44bb e53c 3a05 38be a578 483e def0 40bd
00000060: 63c4 2bbd c0c4 fdbd bd59 913e 0b9f d73e
00000070: f32e d5bc 0597 66be 85a1 af3d 5a0f 163e
00000080: 54a4 e6bc ff49 6dbb 3725 24be 86b5 b63d
00000090: b7df 623e b1b2 c4bc 3940 6c3e 8406 d6be
000000a0: bd9a 083f e612 a6be 1a45 0f3d 6252 1cbd
000000b0: 2392 903e 82df 70bc 7dd5 793d de36 7e3e
000000c0: 6fa5 afbe 00fe 853e 18a8 5e3e 6dfc 343f
000000d0: 70ec ab3e 7c2a aebe 984f 8ebe 6c6e 92be
000000e0: 6fcf 8abd 8b24 6b3d adec 543e bb8d 38be
000000f0: 47a1 ff3c a7fc 8cbe 861c 69bd dbfe 1cbe
00000100: 6575 d13c a3d3 8f3e f2fe c6be 0b88 07be
00000110: 8dd9 573d 1c6c 07be 16a8 d9bd dbd8 843e
00000120: 8ff3 723e 4e6e 0dbe bd99 963d 5446 2cbe
00000130: cdfc d2bd 65df 3fbe 939e 543e 8931 9a3e
00000140: 2dcc 15be ea1a a83d a608 33be 81d5 6d3d
00000150: 5cbd 91bb 5fa3 14be 6227 533e eb98 13bd
00000160: 2530 2c3e 8f5d 02be 9281 e03e f13f d53e
00000170: 2e50 8a3a 7bc9 6abe 1637 f2bd 8e68 973e
00000180: 8da3 0ebd 340b 26bd b024 24be 29cb d6bc
00000190: f9b5 623e ccb2 703e e26b 6cbd 0d3b 8abe
000001a0: cb6f b83e a9a9 a6be ac87 e8bd 3f7c ae3c
000001b0: 8bf6 6f3e 4dd9 dbbc 8235 a83e 7505 453e
000001c0: c19b 8bbe b2ac 873e 5bf3 6abc 06a6 5b3f
000001d0: 03c2 833e 1e76 c3be d574 57be 107f abbe
000001e0: ec02 6d3d 328a e6bc 7cd2 b93e 5236 0ebe
000001f0: 5350 81bd fd1e 5cbe 5695 60bd 06e7 ffbd
00000200: 7f0f 1fbd a79f 4c3e c0f1 d8bd 4e8e 1dbe
00000210: 230e 4dbe b5eb 9dbe 5586 933e 86db 843d
00000220: 94eb 023e bf01 87be b76e 7d3c fd7c dabd
00000230: 9216 0dbe b11e 81be f8fb aa3e c0dd 333e
00000240: cacb 0cbe aec3 c7bd 9c5a 13be 828f db3e
00000250: 2613 bd3d ef3d bd3d 42e9 843b e4f3 c0bd
00000260: 690c a03e ae43 a6be bd56 ecbe 189a 2a3e
00000270: 0236 dfbc 2341 99be d83e 533c c063 5b3e
00000280: 2a0b 20bd 387b d63c c187 85be cfa8 173d
00000290: 6a38 683e 1db7 ac3c db19 813e f9f3 a4be
000002a0: 0483 333f ebf7 94be 99e3 503d c32c f63c
000002b0: cf81 813e 2a5b e83d 9e94 813d 46a1 8e3e
000002c0: d822 a8be 5181 4c3e 242d d63e 3737 193f
000002d0: 379e 3d3e 78d0 d5bd 795d ef3b e768 94be
000002e0: 6ad1 6abe b373 a03c ec20 563e 2ba6 03be
000002f0: a6ab 8ebd 8f13 c33e 776e 36be bf0c 2ebe
00000300: e7ac 60bd 2036 7c3e 2f7a 4abe c793 aabe
00000310: 5289 2c3c b26f b9bd 03bf 7dbe 7b8e 933e
00000320: 6233 6b3e 1a72 36be 8873 a5bc 5cd9 e4bd
00000330: 336f 18be d760 eebd a3e3 8a3e 0675 7b3d
00000340: 3900 33be 0d30 9dbd 1a4e 29be 046b 9d3d
00000350: 637a 4f3d 0053 12bd 9aa5 0f3f acd3 08bc
00000360: f5f0 afbb a874 1fbe bd5e 013f 366a cd3c
00000370: 945b 35bd f3c3 83be 94a3 15bb 6266 4b3e
00000380: b0a2 abbc 47ef aebc e915 5fbe d3f3 f43c
00000390: 9f4d 513e 42b3 783d ef5f 603e 6f77 a4be
000003a0: 3897 2d3f 9a50 97be 30f5 9e3d 7427 21bd
000003b0: f128 823e 7958 babd 4403 afbc 2d34 6a3e
000003c0: bddf c3be 4576 de3e 6218 d13e 3ebf 303f
000003d0: 687a 0c3e cb43 703e aeb8 37be a3d7 b7be
000003e0: e1d6 123f 1b8d d0bc ed25 eb3d c8aa b3bd
000003f0: df9f d43c 587a 9e3d 7d60 92be 1950 33be

fc.6.bias f4 [6]
0.19952157 0.041347392 -0.102856725 -0.20320645 -0.15687484 -0.15598212
00000000: 624f 4c3e e25b 293d 8ca6 d2bd 5a15 50be
00000010: cca3 20be c7b9 1fbe
