reinforcement-learning/reinforce/experiments/cartpole-v0-gamma-95.pt (torch, 6999 bytes, 6 tensors)

fc.0.weight f4 [32, 4]
0	0x3d17bd32	0.037045665
1	0xbca221e5	-0.019791553
2	0xbf0d9bff	-0.55316156
3	0xbecfcc59	-0.40585592
4	0x3d8a7ec8	0.06762463
5	0x3bfc5143	0.007700117
6	0xbf0ca8dd	-0.54945165
7	0xbee49c46	-0.44650477
8	0x3ae24b8c	0.0017264946
9	0xb9370914	-0.00017455622
10	0xbb529559	-0.0032132475
11	0x3b1ea919	0.0024209677
12	0x3d6cb5c8	0.057790548
13	0x3d41d0a3	0.047318112
14	0xbf0fdced	-0.5619648
15	0xbee4e84d	-0.4470848
16	0xbbcbb52a	-0.006216665
17	0xbc74c2d2	-0.014939027
18	0xbc854ea6	-0.016272854
19	0xbb3c6725	-0.0028748002
20	0x3e327fce	0.17431566
21	0x3e5df6bc	0.21676153
22	0x3e985e6a	0.29759532
23	0x3e546a0a	0.20743576
24	0x3d813dd8	0.06310624
25	0x3d03b2f1	0.032153074
26	0xbf0ec33e	-0.55766666
27	0xbedd54c1	-0.43228725
28	0x3c00db0d	0.007864726
29	0xbbbe49e6	-0.005807149
30	0x3b453a81	0.0030094685
31	0x3b9847b9	0.004647222
32	0xbaac2058	-0.0013132198
33	0xbc0f8cdf	-0.008761614
34	0xbc11350d	-0.008862746
35	0xbbca098d	-0.0061656893
36	0x3d2f3419	0.042774294
37	0xbcb295d2	-0.021799956
38	0xbf0cf46c	-0.5506046
39	0xbee0a9c0	-0.4387951
40	0xbb417373	-0.0029518276
41	0xbc1b165e	-0.009465782
42	0xbb992c78	-0.0046744905
43	0xbc38085d	-0.011232463
44	0xbc72841c	-0.014802005
45	0x3c520d78	0.012820594
46	0xbc770a6f	-0.015078171
47	0x3c4d72fb	0.0125396205
48	0x3d37acd0	0.04484254
49	0xbc36c4a4	-0.011155281
50	0xbf0e9c9e	-0.5570773
51	0xbedf9c3a	-0.4367388
52	0xbba37ad9	-0.00498901
53	0x3c21bb79	0.009871357
54	0xbb408235	-0.0029374484
55	0xbc98b10a	-0.018639106
56	0x3e8bafb7	0.27282497
57	0x3ebb2aeb	0.3655618
58	0x3e5200dc	0.2050814
59	0x3d7f3c9e	0.06231367
60	0x3d560a4e	0.05225592
61	0x3c97a3fa	0.018510807
62	0xbf0d51a5	-0.55202705
63	0xbed2a62a	-0.41142398
64	0xbab189ae	-0.001354506
65	0xbc64a1af	-0.013954564
66	0x3b20f12b	0.002455781
67	0x3c3c8dd0	0.01150842
68	0x3d3fc849	0.046821866
69	0x3cbe14ea	0.023203332
70	0xbf0d8eb0	-0.5529585
71	0xbee27181	-0.44227222
72	0x3cdec7d8	0.027194902
73	0x3afaa3bd	0.0019122284
74	0xbef55da5	-0.47923008
75	0xbebb39ce	-0.3656754
76	0xbbdca9e0	-0.006734118
77	0x3c28476d	0.0102709355
78	0xbc384bf4	-0.011248577
79	0x3b8837b3	0.0041570305
80	0xbb7997b5	-0.003808481
81	0x3b5471ca	0.0032416456
82	0x3bff88b2	0.007798278
83	0xbb5b4641	-0.0033458623
84	0x3e704175	0.2346247
85	0x3e8dd8bc	0.27704418
86	0x3e7deea4	0.24798065
87	0x3dd94643	0.106091045
88	0xbc889e18	-0.016676947
89	0xba77b66f	-0.0009449487
90	0xbacbdd9c	-0.0015553716
91	0xbaf54ca0	-0.0018714853
92	0xbc88728f	-0.016656188
93	0x3c28578a	0.010274777
94	0x3c102b97	0.008799455
95	0x3bdc0c06	0.0067153005
96	0x3d9e2d0e	0.07723437
97	0x3c8f5167	0.01749487
98	0xbf0819c0	-0.5316429
99	0xbed78cff	-0.4209976
100	0x3d217511	0.039418284
101	0x3c39bbdc	0.011336293
102	0xbef6ff59	-0.4824169
103	0xbeba17fe	-0.3634643
104	0xbc9ce69f	-0.019152937
105	0x3c44e8f0	0.012018427
106	0xbba3f701	-0.0050038104
107	0x3b43f452	0.0029900265
108	0x3da99662	0.08280636
109	0x3cb7890d	0.022404218
110	0xbf0e4385	-0.55571777
111	0xbee1edaa	-0.44126636
112	0xbc960aba	-0.018315662
113	0x3c9004c4	0.017580397
114	0xb9ff8c5e	-0.00048741972
115	0x3c6f7258	0.014614664
116	0x3bce4d20	0.006295815
117	0x3c69c18b	0.014267336
118	0xbc2ab5c0	-0.010419309
119	0x3befac01	0.0073142056
120	0xbc1ac04d	-0.009445262
121	0x3bc043eb	0.0058674715
122	0x3c49f82e	0.012327237
123	0xbbf7ecb0	-0.007566057
124	0x3d5a7ccf	0.053341683
125	0x3d295687	0.041342285
126	0xbf10e3bc	-0.56597495
127	0xbee5a9a6	-0.44855994

fc.0.bias f4 [32]
0	0x3e5d431e	0.21607634
1	0x3e964a85	0.2935373
2	0xbf0f5bca	-0.55999434
3	0x3eb5165e	0.35368627
4	0xbf8b31ef	-1.0874614
5	0x3fd4f7da	1.6638138
6	0x3efb5d7b	0.49094757
7	0xbf77bd95	-0.96773654
8	0xbf267435	-0.6502107
9	0x3e712039	0.23547448
10	0xbd76d869	-0.06026498
11	0xbf46835d	-0.77544194
12	0x3e8536d0	0.2601838
13	0xbed9634f	-0.4245858
14	0x3fb21037	1.3911198
15	0x3f360afc	0.7111051
16	0xbd9ce131	-0.07660139
17	0x3ecdea1b	0.4021767
18	0x3f77c458	0.9678397
19	0xbe30bfaf	-0.17260621
20	0xc016d4cb	-2.3567379
21	0x3fe70fee	1.8051736
22	0xbe391ac8	-0.18076622
23	0xbd1da755	-0.03848966
24	0x3f533944	0.82509255
25	0x3f62a4aa	0.8853251
26	0xbea5f5c6	-0.32414073
27	0x3ea41453	0.32046756
28	0xbf01beda	-0.5068184
29	0xbf6e8fb3	-0.9318802
30	0xbffedebf	-1.9911727
31	0x3eb17c7a	0.3466528

fc.2.weight f4 [32, 32]
0	0x3ea9894c	0.33112562
1	0x3e808530	0.25101614
2	0x3cb14faf	0.021644441
3	0x3e40617d	0.18787189
4	0xbbe4c217	-0.006981145
5	0xbd9b4e59	-0.07583303
6	0x3e1bf1dd	0.15228982
7	0x3c4e498f	0.01259078
8	0xbc9e5986	-0.019329797
9	0x3ea2e94b	0.31818613
10	0x3c43ee9c	0.011958744
11	0x3bc4e4c5	0.0060087168
12	0x3e8a87a2	0.27056605
13	0xbba9688e	-0.0051699346
14	0xbd78e4c4	-0.060765043
15	0x3da270b9	0.079316564
16	0xbc010ed8	-0.007877074
17	0x3e2c07db	0.16799872
18	0x3d0b6963	0.03403605
19	0x3b22a526	0.0024817674
20	0x3b3b4721	0.0028576332
21	0xbd9cef0f	-0.07662784
22	0x3c9461b9	0.018113004
23	0xbbd4fc2d	-0.0064997883
24	0x3d54e7ec	0.05197899
25	0x3d1f1c10	0.03884512
26	0x3c88b506	0.016687881
27	0x3e4b5b2f	0.19859003
28	0xbc6277f5	-0.013822545
29	0xbaf0f7b5	-0.0018384369
30	0xbc8a28c7	-0.016865147
31	0x3e6490cc	0.2232086
32	0x3eaa9650	0.33317804
33	0x3e857069	0.26062325
34	0x3b410bc6	0.002945648
35	0x3e622f67	0.22088395
36	0x3c8e2639	0.01735221
37	0xbdcd551a	-0.100259975
38	0x3e2431d3	0.16034631
39	0xbbd23d33	-0.006415987
40	0x3bc42087	0.005985323
41	0x3eacd956	0.33759564
42	0xbc100a4d	-0.008791518
43	0x3bd78d80	0.0065781474
44	0x3e97b869	0.2963288
45	0x3b281116	0.002564495
46	0xbd8cef42	-0.06881572
47	0x3d942f4f	0.07235586
48	0x3b72eb1d	0.0037066408
49	0x3e51319a	0.20429078
50	0x3c7ce3fe	0.015435217
51	0x3c2d3793	0.010572332
52	0xbbc53750	-0.0060185567
53	0xbda1454f	-0.07874548
54	0xba211294	-0.0006144431
55	0xbba9a6ae	-0.0051773405
56	0x3d80a364	0.06281164
57	0x3cb87384	0.02251602
58	0xbc97afe7	-0.018516494
59	0x3e638f75	0.22222693
60	0xbb1363df	-0.0022489948
61	0xbc379fbc	-0.011207517
62	0xbbf572a3	-0.0074904724
63	0x3e7d77b5	0.24752696
64	0xbc607493	-0.013699668
65	0xbc828cd9	-0.015936302
66	0x3c913cc3	0.017729169
67	0xbb8ff30b	-0.0043929867
68	0xbc229152	-0.009922342
69	0xbc260fca	-0.0101356
70	0x3b803c9c	0.003913475
71	0x3c4dbbee	0.012557013
72	0xbc6661db	-0.0140614165
73	0xbc3b75e4	-0.0114416815
74	0xbca610b3	-0.020271635
75	0xbb8cf7ba	-0.0043019922
76	0x3c29ff9e	0.010375885
77	0xbbb5874b	-0.00553981
78	0x3b05f15b	0.0020438049
79	0xbc08e5d9	-0.008355581
80	0xbc2e7e87	-0.010650284
81	0xbb2682c4	-0.0025407532
82	0xbc0cba0b	-0.008589278
83	0xbc02ebe6	-0.007990813
84	0xbc076f82	-0.008266332
85	0xbb8191d2	-0.0039541507
86	0x3c979b40	0.018506646
87	0xbc367d21	-0.0111382315
88	0x3b073829	0.002063284
89	0x3ac539de	0.0015047153
90	0x3c0b9d46	0.008521384
91	0xbcabc722	-0.020968977
92	0x3c06d1b7	0.008228711
93	0x3c1911fb	0.009342666
94	0xbb5498e2	-0.0032439758
95	0xbb915aab	-0.0044358573
96	0xbe1731e8	-0.14765131
97	0xbe1dd103	-0.15411763
98	0xbc46bc02	-0.0121297855
99	0xbdfddf47	-0.123961024
100	0xbc10489f	-0.008806377
101	0x3dec75e3	0.115459226
102	0xbddb136c	-0.10697064
103	0x3c08cd50	0.008349732
104	0xbb31f0ee	-0.0027151662
105	0xbe35e4c4	-0.17763048
106	0xbbb45b61	-0.0055040573
107	0xbb02a2a0	-0.0019933358
108	0xbe40ab76	-0.18815407
109	0x3c0d89db	0.008638824
110	0x3dc72e65	0.09725646
111	0xbd45a908	-0.048256904
112	0x3ba200d3	0.004943946
113	0xbe03fff2	-0.12890604
114	0x3c5f3fc1	0.01362604
115	0xbbbe3282	-0.005804361
116	0x3b423a21	0.0029636698
117	0x3de86e5c	0.113491744
118	0xbae75037	-0.0017647807
119	0xbad387b7	-0.0016138469
120	0xbc98f866	-0.018673133
121	0x39e470ca	0.00043571583
122	0xbb370187	-0.0027924494
123	0xbe157bb4	-0.1459797
124	0x3c0baaf1	0.008524642
125	0x3b1abba2	0.0023610373
126	0xbb1c81eb	-0.0023881148
127	0xbdf82035	-0.12115518
128	0xbbbfbd5d	-0.0058514313
129	0xbc6a1929	-0.014288225
130	0xbc596e50	-0.013270929
131	0x3b899970	0.0041991994
132	0x3c9e494f	0.019322066
133	0xbc67f3fc	-0.0141572915
134	0xbb617d74	-0.0034407051
135	0x3c3972b2	0.011318849
136	0xbbb2493b	-0.0054408587
137	0xbb2208b8	-0.0024724435
138	0x3b3ee809	0.0029130003
139	0x3d1651d4	0.03669913
140	0xbb98a5b7	-0.0046584266
141	0xbcc1c94a	-0.023655552
142	0x3baf13ab	0.005342921
143	0xbb85cf57	-0.0040835547
144	0x3c05d897	0.008169315
145	0x3b536dd7	0.0032261515
146	0x3c30b9d8	0.010786496
147	0x3b39f53c	0.002837493
148	0xbc31bd33	-0.010848331
149	0x3c20e122	0.009819301
150	0xbbc5184e	-0.0060148602
151	0x3c3782c4	0.011200611
152	0xbbb0cdc4	-0.005395623
153	0xbc0627f3	-0.008188236
154	0xbbb211a7	-0.005434233
155	0x3c6c51b4	0.014423776
156	0x3b82c3f8	0.0039906465
157	0x3cf3509c	0.029701523
158	0x3b948ccf	0.0045333873
159	0xba8e8486	-0.0010873235
160	0x3eb32bad	0.3499426
161	0x3e8d0998	0.27546382
162	0x3c6fc9fc	0.014635559
163	0x3e6a110c	0.22858065
164	0xbbeb467c	-0.0071800333
165	0xbdb052b5	-0.08609525
166	0x3e3a0278	0.18165004
167	0x3bd9b8fd	0.006644367
168	0x3ac3f8e9	0.00149515
169	0x3eb2f06b	0.3494905
170	0x3c604f46	0.013690775
171	0xbb2fd146	-0.0026827618
172	0x3e9839cb	0.29731593
173	0x3abf428f	0.001459198
174	0xbd79a83f	-0.060951468
175	0x3dcb1c4b	0.09917506
176	0x3b41cf4c	0.0029573021
177	0x3e5811be	0.21100518
178	0x3d59491b	0.053048234
179	0x3cb1682b	0.021656116
180	0x3c49740f	0.012295737
181	0xbda0c63b	-0.078503095
182	0xbac7dca4	-0.0015248251
183	0xbc0690bf	-0.008213221
184	0x3da4ae98	0.080411136
185	0x3cd44780	0.025913
186	0xbcb5d567	-0.022196485
187	0x3e82028a	0.25392562
188	0x3cc5839b	0.024110606
189	0x3a0343bf	0.00050073484
190	0x3be9e238	0.007137563
191	0x3e7415fd	0.23836513
192	0x3b222004	0.002473832
193	0xbca1106b	-0.019661149
194	0x3ba98a27	0.0051739397
195	0x3bfe0b0b	0.0077527813
196	0xbc66603d	-0.014061031
197	0xbc2058c7	-0.009786791
198	0x3b870ef7	0.004121657
199	0x3c0d5c3c	0.008627947
200	0x3c0b2b35	0.008494188
201	0xbc82f294	-0.01598481
202	0x3bc602dc	0.0060428213
203	0x3c26da59	0.010183894
204	0xb9415100	-0.00018436089
205	0xbb2a45b7	-0.0025981495
206	0xbc402e8e	-0.0117298495
207	0x3cc0865c	0.023501568
208	0xba9d4c97	-0.0012000975
209	0xbba902b4	-0.005157793
210	0x3b8223a0	0.003971532
211	0x3c7cf0bc	0.015438255
212	0x3bbad90e	0.0057021445
213	0x3c71eac9	0.01476545
214	0x3c19de6e	0.00939141
215	0x3c025e8e	0.007957114
216	0xbc6fa55b	-0.014626826
217	0x3bca9cc0	0.006183237
218	0xba78eddd	-0.00094958936
219	0x3aa584c6	0.001262807
220	0x3c9dcd31	0.019262882
221	0x38f15e43	0.00011509333
222	0xbc32c4e7	-0.010911203
223	0x3ac2604d	0.0014829725
224	0x3eac23a9	0.33620957
225	0x3e775131	0.24152066
226	0x3c0c1f2f	0.008552357
227	0x3e468b9a	0.19389191
228	0xbb57254e	-0.0032828632
229	0xbdbd59e9	-0.092456646
230	0x3e1c98d5	0.15292676
231	0xbcaaa8c6	-0.02083243
232	0x3c0a3e80	0.008437753
233	0x3ea9f31e	0.33193296
234	0x3b5318b8	0.0032210778
235	0xbc6f92ef	-0.014622434
236	0x3e88448f	0.26614806
237	0x3c4228f7	0.011850587
238	0xbd77291e	-0.060341947
239	0x3d9662c4	0.07343057
240	0xbb99bd11	-0.004691728
241	0x3e3a6725	0.18203409
242	0x3d3235ae	0.043508224
243	0x3b4806f3	0.003052172
244	0x3b2882d3	0.0025712743
245	0xbdb1ff9b	-0.08691331
246	0xbba3c290	-0.004997559
247	0x3b81fccb	0.003966903
248	0x3d700091	0.05859429
249	0x3d08c706	0.03339293
250	0x3c34ea57	0.011042199
251	0x3e673685	0.22579391
252	0xbc4699ee	-0.012121661
253	0xbbca5834	-0.0061750654
254	0xb9b2461d	-0.00034003044
255	0x3e510fed	0.20416231

fc.2.bias f4 [32]
0	0x3f1e11ee	0.6174611
1	0x3edd7e0a	0.43260223
2	0xbfb94470	-1.447401
3	0x3f60574e	0.87633216
4	0xbfb86b47	-1.4407738
5	0x3dc4405b	0.09582587
6	0xbf2a9d08	-0.6664586
7	0x3f0b2e3a	0.5436741
8	0xbf353ed5	-0.70799
9	0x3deba792	0.11506571
10	0xc00b305d	-2.1748269
11	0xbf34abc6	-0.70574605
12	0xbf8cb661	-1.0993158
13	0xbf97388f	-1.1814135
14	0xbd033a35	-0.032037932
15	0xbf98041c	-1.1876254
16	0x3d802bbf	0.06258344
17	0x3dfadb46	0.12248854
18	0x3ec50742	0.384821
19	0x3f378070	0.71680355
20	0x3f051c66	0.5199646
21	0x3ec06cf0	0.37583113
22	0x3fe566f6	1.7922046
23	0xbe9f1402	-0.31069952
24	0x401a533e	2.4113307
25	0x3fe6f076	1.8042133
26	0xbf8b8a4d	-1.0901581
27	0xbf914c85	-1.1351477
28	0x3ebe633d	0.37185088
29	0xbe5d0466	-0.21583709
30	0x3f127510	0.57209873
31	0xbf44f975	-0.7694314

fc.4.weight f4 [2, 32]
0	0x3d5facfb	0.054608326
1	0x3dd2872d	0.10279689
2	0xbb484d29	-0.003056357
3	0xbdfd0296	-0.12354009
4	0x3c005cd9	0.007834637
5	0x3e2f0ab1	0.17093922
6	0x3b8e2c0b	0.0043387464
7	0x3d8076e9	0.0627268
8	0xbb831f8f	-0.004001565
9	0x3e37fc2b	0.17967288
10	0x3c470460	0.012147039
11	0x3b0540dd	0.002033285
12	0x3c73ae5d	0.014873114
13	0xbabba02e	-0.0014314705
14	0x3e65c24d	0.22437401
15	0x3c2787cd	0.0102252485
16	0x3e572f72	0.21014193
17	0x3e391020	0.18072557
18	0x3dce9cbb	0.10088488
19	0x3d12cf1f	0.035842057
20	0x3d92b70e	0.07163821
21	0x3ddf5eaa	0.109067276
22	0xbdea02b4	-0.11426297
23	0xb9d1759d	-0.00039951215
24	0xbdb89323	-0.09012439
25	0xbd78a21e	-0.060701482
26	0xbbe0cbeb	-0.0068602464
27	0x3bc5433d	0.0060199783
28	0xbe8c25f4	-0.27372706
29	0xbb520c0b	-0.0032050635
30	0x3d8248d6	0.063615486
31	0x3c5675b7	0.013089589
32	0xbd80cefd	-0.0628948
33	0xbdb06289	-0.08612544
34	0x3cc0b8e0	0.023525655
35	0x3dfe1156	0.1240565
36	0x3c03b824	0.008039508
37	0xbe33f9a9	-0.17575707
38	0x3b937b06	0.0045007495
39	0xbdabaad8	-0.08382195
40	0x3c72a3cf	0.014809563
41	0xbe353e85	-0.1769963
42	0x3ccb396a	0.02480765
43	0x3caf9b86	0.021436464
44	0xbac3c605	-0.0014936334
45	0xbbe39f17	-0.006946455
46	0xbe41920f	-0.18903373
47	0xbba67fee	-0.0050811684
48	0xbe573247	-0.21015273
49	0xbe3828c3	-0.179843
50	0xbdd80f5d	-0.10549805
51	0xbd34a879	-0.04410598
52	0xbd9f16ba	-0.077680066
53	0xbdd8df16	-0.10589425
54	0x3ded14f0	0.11576259
55	0x3b5bdb6a	0.003354753
56	0x3da091dc	0.078403205
57	0x3da2528d	0.079259016
58	0xbb0b23f0	-0.0021231137
59	0x3bef14aa	0.0072961645
60	0x3e922e54	0.2855097
61	0x3c367107	0.011135346
62	0xbd6c2fb9	-0.0576627
63	0xbab94a62	-0.0014136548

fc.4.bias f4 [2]
0	0xbf99aa5a	-1.2005112
1	0xbf14a50b	-0.58064336
